Checkpoints/C32_COIL100/net_device_images.pth (torch, 9080 bytes, 1 tensors)

weight f4 [2, 1024]
000000 01 a8 35 bf 65 9c b8 3f c8 6c c2 3f 10 97 b8 be
       -0.7095948 1.4422728 1.5189447 -0.36052752
000010 13 39 89 be fe 90 68 be 9e 8e d9 3f e6 67 53 3f
       -0.26801357 -0.2271156 1.6996648 0.8258041
000020 de a8 b2 be 55 d7 90 be ae 00 5c bf 69 3d 05 40
       -0.3489446 -0.28289285 -0.8593854 2.0818732
000030 0c ad 7e be c5 2d 79 be 89 d2 b6 3f 53 49 5f bf
       -0.248707 -0.24333866 1.4283 -0.8722126
000040 00 d6 03 40 1f 5d 8d 3f 91 0e fd bf 76 c2 86 3e
       2.0599365 1.1044043 -1.977007 0.26320237
000050 d5 ee 49 3f a3 36 2f 3f 17 0d 94 bf 54 96 0c bd
       0.78880054 0.68442744 -1.1566495 -0.03432305
000060 1b c9 43 3f 9d 75 a5 3f eb a6 2f 3f c3 3c 7c be
       0.7647874 1.2926518 0.6861407 -0.24632554
000070 ad 17 5f be e5 fa 5e be 7b 45 b8 3d 69 56 9d bf
       -0.21786375 -0.21775396 0.08997627 -1.2291995
000080 d3 39 4d 3e c1 48 93 bf d4 fd de bd 59 4f bd be
       0.2004159 -1.1506578 -0.108882576 -0.369746
000090 21 36 7e 3f b4 2c 01 bf ec 22 79 3f 71 fb cf be
       0.99301344 -0.50458837 0.9731891 -0.40621522
0000a0 69 b0 e3 3f 09 b3 82 bf 3a 32 c7 3e 62 48 9d 3f
       1.7788211 -1.0210887 0.38905507 1.2287714
0000b0 9a b3 1a bf b9 b5 7f be 81 75 da 3f da 92 08 bf
       -0.604303 -0.24971665 1.7067109 -0.5334908
0000c0 6c 8b 1f be 7d 99 b7 bd 28 25 3d 3f a8 32 91 3e
       -0.15580529 -0.089648224 0.7388482 0.2835896
0000d0 e7 a1 87 3f b6 4a 0f 3f 49 ca dc be 9a 3b 0d 3f
       1.0596284 0.55973375 -0.4312308 0.5516907
0000e0 fc 95 45 bf d1 22 01 c0 77 c9 cc 3f 0a 67 9a 3e
       -0.77181983 -2.01775 1.5998982 0.30156738
0000f0 18 39 c0 bf e0 4c 2a bf b5 bc e9 3f 49 c8 34 3f
       -1.5017424 -0.6652355 1.8260714 0.7061811
000100 74 23 a8 bf 2c 4b 31 bf f1 f0 b7 3f 15 8a 2f be
       -1.313582 -0.6925533 1.4370404 -0.17142518
000110 7b 89 04 3f e2 9a a6 3f f8 88 ce be 0f 10 b7 3d
       0.5177228 1.3016016 -0.40338874 0.0893861
000120 94 04 97 3e ea c6 b8 3e 00 41 b4 3f a1 c6 b9 bf
       0.2949568 0.3608926 1.4082336 -1.4513742
000130 b0 d2 d7 3f 22 0a 95 3f 53 0a 21 bf 74 7c ca bd
       1.6861172 1.1643717 -0.6290638 -0.09887019
000140 09 31 66 be f5 d6 3d bd 5a 8b 24 3f 21 ec fd 3e
       -0.22479643 -0.046347577 0.64275134 0.49594215
000150 f4 ee ad bf 34 5a 8f bf 3d f9 fe 3d c4 d1 3b bd
       -1.3588548 -1.1199403 0.12449882 -0.045854345
000160 bb 82 f7 bd 4e 9a 21 3f 31 6e a4 3f ec 4e 1c bf
       -0.12085482 0.63126075 1.2846128 -0.61057925
000170 df c6 be 3d 1a bb 9f bf da 03 9a bf 28 c5 ce 3c
       0.093152754 -1.2478974 -1.2032425 0.025240496
000180 9f 18 b4 bf f2 47 77 3d 5c c3 cd bf f8 a3 50 3d
       -1.4070014 0.060371347 -1.6075244 0.050937623
000190 24 ba d9 3f eb c7 24 40 e3 3e a2 3f c3 b2 c6 3f
       1.7009931 2.574702 1.2675442 1.5523304
0001a0 7d 97 a0 bd b0 44 a0 be 36 70 93 3f 1d af ad bf
       -0.07841394 -0.31302404 1.1518619 -1.3569065
0001b0 8f 52 04 3f e0 26 d4 3f 61 40 65 3e d9 ad 88 bf
       0.51688474 1.6574364 0.2238784 -1.0678054
0001c0 36 da 26 bf ec 87 fc be 8b 71 59 3f c5 08 5e bf
       -0.65176713 -0.4932245 0.8493888 -0.8673213
0001d0 80 b2 12 be 50 e5 c7 3f 6b 73 cb bd 5e 14 b7 3f
       -0.14325905 1.5616856 -0.099341236 1.430309
0001e0 33 88 4c bf 81 4c e5 be 7a 1d d2 3f 2a bf 19 bf
       -0.79895324 -0.4478493 1.6415246 -0.6005732
0001f0 3d e3 d3 3d 36 61 51 3f 6e e8 69 3e 9c e5 f1 3e
       0.10346077 0.8178896 0.22842571 0.4724549
000200 21 90 2f be be 69 64 3e 3a b8 36 be b2 f4 05 3f
       -0.17144825 0.22305962 -0.17843714 0.523265
000210 80 04 a8 3f d6 2a 14 be 4d be 8b 3d 8e 81 d3 bf
       1.3126373 -0.14469466 0.06823406 -1.6523912
000220 ca c0 74 3f ae b9 28 3f 5d a0 a8 3f 46 25 fd bf
       0.9560667 0.65908325 1.3173939 -1.9777
000230 d0 b1 0f 3e 33 c1 62 bf 46 a4 1e be 39 91 00 c0
       0.14032674 -0.8857605 -0.15492353 -2.0088637
000240 ed 32 88 be c4 08 9d 3e d5 53 78 3f e7 1f ec bf
       -0.26601353 0.3067075 0.9700292 -1.8447236
000250 7a 05 3d 3f 8e e5 97 be be 17 2f 3f c3 0a fd bf
       0.7383648 -0.29667324 0.683956 -1.9768909
000260 a1 0d df be bd 71 70 3f 4a 37 86 3e f6 e0 03 3f
       -0.43565086 0.9392355 0.26214057 0.5151514
000270 40 55 90 bf 96 78 19 3e 02 30 78 3d ac 0d a7 bf
       -1.1276016 0.14987406 0.06059266 -1.3051047
000280 ae 33 7c bf cc 2d 3d 3f 5d 1b 20 3f 8e 2a 60 bf
       -0.98516357 0.73898005 0.62541753 -0.87564933
000290 3d e7 09 3b 78 f2 ae bf 89 32 23 be 07 f9 bf bf
       0.002104237 -1.3667746 -0.15937246 -1.4997872
0002a0 b3 1c ea bd 17 c2 3f 3f b0 73 b6 3f 26 46 1f bf
       -0.11431255 0.7490553 1.4254055 -0.62216413
0002b0 f9 05 57 bf e4 08 51 3f 2e 18 ab 3f a5 9d 6a bf
       -0.8399349 0.8165419 1.3366754 -0.91646796
0002c0 54 cb 87 bf 6f 5e 29 bf ea d0 99 3f d8 21 85 3e
       -1.0608926 -0.6615972 1.201688 0.26002383
0002d0 04 d1 13 40 d6 71 d5 be db b8 84 bf 0c 6f e9 be
       2.3096323 -0.41688412 -1.0368913 -0.45592535
0002e0 6f 51 96 3e 16 f7 a7 3e ca 67 e2 3f 42 d1 f6 3f
       0.29359004 0.328057 1.7687924 1.928261
0002f0 c8 92 99 3f ca 6c 09 bf 1a 7c c8 bf d2 26 b7 3f
       1.1997919 -0.53681624 -1.5662873 1.4308722
000300 75 62 43 bd 28 0b fd bf dd 97 01 3f bb 1c 19 3f
       -0.047701318 -1.976903 0.5062235 0.59809464
000310 81 52 94 3f 75 e3 b2 be c0 02 b2 3f 0d 14 b4 3e
       1.1587678 -0.3493916 1.3907089 0.35171548
000320 d1 86 8e 3d 24 46 50 3f 6c bc 57 3f 44 9a 9f be
       0.06959308 0.81357026 0.84271884 -0.31172383
000330 ba b0 b2 3e f5 0f a4 3e 60 dd 44 3f 5b c7 21 bf
       0.34900457 0.32043424 0.7690029 -0.6319482
000340 1b 29 45 be ad 17 8a bf 55 0f 86 3f a7 4d ad be
       -0.19253962 -1.0788475 1.0473429 -0.33848307
000350 0d 50 07 bf 30 09 56 3e b5 16 25 bf 40 19 00 40
       -0.5285652 0.20901942 -0.64487773 2.0015411
000360 fd b9 3f bf 81 37 8b be 71 c0 f3 3e ef e1 15 bf
       -0.7489317 -0.27190784 0.4760776 -0.5854787
000370 0b d4 86 bf e4 e0 c8 3f 6d 4f 13 c0 80 de a2 bf
       -1.053346 1.5693631 -2.3017228 -1.2724152
000380 02 d9 67 bf 26 39 ee bf 2f ef 31 bf 19 e2 c5 bf
       -0.905655 -1.861119 -0.6950559 -1.5459625
000390 dd 8c 67 3e 57 c7 35 3f cf 2a 0b be 02 fb b6 bf
       0.22612329 0.71007293 -0.13590549 -1.4295352
0003a0 7b 32 2c 3e 06 68 4e 3e 2b 8d 80 bd 66 df 09 3c
       0.16816132 0.2015687 -0.06276926 0.008415079
0003b0 2d 18 9f 3f 15 d1 ae 3f e4 4a f7 3f e9 7a fe bd
       1.2429253 1.3657557 1.931973 -0.12425787
0003c0 b0 04 97 3e ef 5b 71 bf 4f 5e 95 bf b6 2d 2f 3b
       0.29495764 -0.94280905 -1.1669406 0.0026730127
0003d0 26 cb 3c 3f f9 ea 1c 3f 6c 12 4e 3f e4 dc bc bf
       0.7374748 0.6129604 0.8049686 -1.475491
0003e0 0e 82 8d 3f bb 89 ca 3f 0b 34 e8 3f e9 19 01 3f
       1.1055315 1.5823282 1.8140882 0.5043016
0003f0 36 56 2c be c6 2f 8b 3e a7 5d 7e 3f 80 3b 22 bf
       -0.16829762 0.27184886 0.9936165 -0.6337204
