Checkpoints/C32_COIL100/net_Dis.pth (torch, 58021 bytes, 6 tensors)

snet1.0.weight f4 [16, 32, 3, 3]
00000000: 7b6c 11bd bc04 03bc caa4 223b 0018 83bb
00000010: b3a5 743b 60bd fbbc 80b2 0cbd 1de5 0fbc
00000020: 12ae f2bc 5891 bc3c e61a 83bb 54f4 9ebc
00000030: 27f1 673c 35f4 5f3c 9c65 94bc 34d0 9d3b
00000040: 897a fe3b 3a92 54bc 2f60 593c 9a6d b73c
00000050: cc06 99bb d4e4 d33b c6c7 373c 6671 e5bc
00000060: 84aa 08bc 8e6f a1bc 8238 8d3b 5a28 a4bc
00000070: a609 b4bb 2a14 723c 29ff 373c 3407 743c
00000080: 7ff6 863c 0466 edbc 8df7 a8ba 208f 01bc
00000090: a8c4 04bd 800e babb 9b4a 40bc be4d 1dbd
000000a0: 0090 17bc d42d bf3c 401d 6e3c be53 593c
000000b0: 7cc9 2b3d 9430 7b3c 13c3 573b 0af5 48bc
000000c0: 3855 893b fbfc 83bc 4be1 903b 18c3 21ba
000000d0: 6f4c ceb8 58fa 0cbd 4fd9 c8bc 9ba9 383c
000000e0: 3949 c9bc cb72 c03a 0bab f9bc e1b7 133c
000000f0: 75bd 1cbb 61aa a3bb 8c9c f1bc 58e4 04bd
00000100: e7c0 21bb facb e73c bd4c 4abc 4b2e 5dbc
00000110: 104b 10bd 03b4 493c 0c73 f8bb 92c9 683b
00000120: 3ea8 7e3c 1edb ea3a 5aba b63c 1200 d7bb
00000130: 140e afbb 956f 303d 6939 f03c 6262 58bc
00000140: 98e2 35bc 498d e8bc 4cb7 15bc 1f39 1b3b
00000150: 8bcc 023c 1869 253d afe5 d83a 4e74 92bb
00000160: 25eb aa3c 7434 cf3c 7ff9 a2ba a827 6fbc
00000170: 8832 2a3d 955b 2b3c c070 e73c 1d7d 2abc
00000180: f9a3 f63c e4fe 163c 48c6 d0bc 0f52 11bd
00000190: c6b4 be3c 49df a2bc 8611 af3a 8614 7fbc
000001a0: 9b23 0cbd 38a9 ba3c a413 1b3d aa5d 06bd
000001b0: 0f02 a3bc 6632 ebbc e69a 4c3d 037d 0cbc
000001c0: dc98 523c 17d8 4b3c fba7 933c 494e 653c
000001d0: f52e 303b 0a9f f13a c5ec e038 afcd 62bb
000001e0: 1757 0c3d 07a6 4fbc 8261 d6bb 9701 07bd
000001f0: b1c8 003c e2d3 473c d57f 363c df60 1c38
00000200: deef 2e3d 1d3e a7bc 1cab 7bbc 76e8 fa3b
00000210: 040e 823c b29f da3b 818b 16bc 2f2e 47bb
00000220: 89b3 1c3c 7d87 d03b 398f f4bb e478 a13b
00000230: 5eee 9e3c 7830 ee3b 3463 6dbc 9484 95bc
00000240: b682 03bd 316b ecbb ee16 a93c 2c2a 323d
00000250: 1961 cb3b f916 b2bc cfce 03bc 2214 3fbd
00000260: ba6b c23c 0828 b8bb 771d 14bb c38d b73c
00000270: 7748 e4bc a20e 0d3d 7e81 7d3a 6837 be3b
00000280: 42a5 2ebc 5dfb 02bc 007d 97bc 581a 753b
00000290: 39fc 84bb 8c18 b43c 5e7f c4bb 9056 8abd
000002a0: bf79 a5bb 0142 aabb ccee 933c ed2b 563c
000002b0: 2e0a 6539 fcce 6fbc b8d5 3b3b 3270 2fbc
000002c0: c7c3 743c 032d b33c 56f7 cbbb a731 48bc
000002d0: 3d7b b03a fb4b 573c fba8 a23c f34e d8bb
000002e0: a729 6b3c a1c8 913c 933d 113d 4fae 17bd
000002f0: 4ab4 783b 0f13 40bb deda 48bd e60c 493c
00000300: 07f5 f7bb 2c5f 73bb 66b7 0fbc 9b4b 07bd
00000310: 2049 95bb 5f32 3bbc bada 8d3c f887 b73c
00000320: 1eea 1d3d cc0e f43c 930b ab3c ba87 a6bc
00000330: 65f0 39bd f16a 3a3d 9249 65bd b219 4c3c
00000340: dea1 9a3c 4b3b 3a3c 62c6 953c 0193 213b
00000350: eaed 12bd 7db1 54bb 6d65 88bc a20f b4bc
00000360: 1b6c b53c 58f6 4c3b 2d4c 043d b826 22bc
00000370: 2d62 adbc e1c1 b73a fa44 083d d115 be3c
00000380: 1ff5 58bc 6bb2 a23b fb1b 0ebc 99f2 5c3b
00000390: 34a4 2b3c 23e1 433b b965 19bc e82c 3a3b
000003a0: 99de b23b c01f ffbb 40bc fb3b d24e 9f3c
000003b0: f408 51bb 85c2 033d 3c2c a7bc 9577 f83b
000003c0: a502 7c3d c045 303a a8f9 7cbc bfc3 f1bc
000003d0: 51de a63c 8507 16bc 9efa db3b fa6a ce3c
000003e0: 5563 9d3c 380c 863b 9ccb 9c3b 79b9 ecbc
000003f0: 8cfa fe3c 18b4 05bd 17ad c6bc 2dc4 ed3b
-0.035503846 -0.007996734 0.002481746 -0.0040006638 0.003733021 -0.03072995 -0.03434992 -0.008782652
-0.029624019 0.023018524 -0.0040010093 -0.019403614 0.014156616 0.013669063 -0.018114857 0.0048160795
0.007766072 -0.012974316 0.013267561 0.02239113 -0.0046699997 0.0064664874 0.011217063 -0.028008174
-0.008341435 -0.019706514 0.004309715 -0.020038772 -0.0054943142 0.014775315 0.0112302685 0.0148942955
0.01647496 -0.028979309 -0.0012891159 -0.007907659 -0.03241411 -0.005677998 -0.011736537 -0.03840422
-0.009250641 0.023337282 0.014533341 0.013264595 0.041940197 0.015331406 0.003292267 -0.012265453
0.004191067 -0.016111841 0.0044213883 -0.0006170734 -9.837082e-05 -0.034418434 -0.024517683 0.011270906
-0.024571048 0.0014682648 -0.030477067 0.009016008 -0.0023916636 -0.004994676 -0.029493593 -0.032444328
-0.002468163 0.028295506 -0.012347397 -0.013499807 -0.035227835 0.012310985 -0.007582074 0.0035520536
0.015543042 0.0017918085 0.022305656 -0.0065612877 -0.0053422544 0.043075163 0.02932425 -0.01320705
-0.011101387 -0.028387683 -0.00913794 0.002368517 0.007983337 0.04038343 0.0016547943 -0.004469431
0.020864079 0.025293566 -0.0012433975 -0.014596857 0.041552097 0.010458847 0.028252006 -0.010405806
0.030107485 0.009216044 -0.025485173 -0.035478648 0.023279559 -0.019881861 0.0013356663 -0.015568858
-0.034213644 0.022785768 0.037860528 -0.03280417 -0.019898443 -0.028710555 0.04995241 -0.008574727
0.012853827 0.012441657 0.018024435 0.013995715 0.0026883457 0.0018434238 0.00010725254 -0.003460746
0.034262743 -0.012673861 -0.0065423856 -0.0329605 0.007860349 0.012196513 0.011138876 3.7283517e-05
0.042709224 -0.02041536 -0.01536062 0.007657106 0.015875824 0.006671869 -0.009188534 -0.0030392518
0.009564289 0.0063638077 -0.0074633625 0.0049277414 0.019400772 0.0072689615 -0.014488984 -0.018251695
-0.032107078 -0.0072149266 0.020640817 0.04349725 0.0062066433 -0.02173947 -0.0080449125 -0.04665006
0.023733009 -0.0056200065 -0.002260057 0.022406464 -0.027866585 0.034437783 0.000967048 0.005804945
-0.010659518 -0.0079945 -0.018492222 0.0037399735 -0.0040583876 0.021984361 -0.0059966287 -0.06754792
-0.0050499137 -0.0051958566 0.018058203 0.013071996 0.00021842934 -0.014636751 0.0028661322 -0.010707902
0.014939255 0.02187205 -0.006224553 -0.012218869 0.0013464462 0.013140674 0.019855967 -0.0066012084
0.014353192 0.017795863 0.035459112 -0.037031468 0.0037949258 -0.0029308235 -0.049036853 0.012271142
-0.0075670513 -0.0037135584 -0.008771753 -0.033031087 -0.0045558363 -0.011425584 0.017316211 0.022403702
0.03855335 0.029792212 0.020879542 -0.020328391 -0.045395274 0.045512144 -0.055978365 0.012457298
0.018876012 0.011366676 0.018283073 0.0024654272 -0.035871424 -0.0032454424 -0.016649926 -0.02198011
0.022146275 0.0031274762 0.03229921 -0.009896927 -0.021164978 0.0014019572 0.033268906 0.023203762
-0.013242035 0.0049651167 -0.008673663 0.0033713935 0.010476161 0.002988883 -0.0093626315 0.0028408114
0.0054586646 -0.0077857673 0.0076823533 0.019446764 -0.0031896206 0.03216793 -0.020406835 0.0075826147
0.06152596 0.0006724261 -0.015440382 -0.029512284 0.02036968 -0.009157066 0.0067132255 0.025197495
0.019212404 0.004090812 0.0047850143 -0.028897034 0.03112533 -0.032642454 -0.024252458 0.007256052

snet1.0.bias f4 [16]
00000000: ecf3 99bb 5928 08bb 5c53 83bb 1265 6839
00000010: ea96 f2bb bd28 a5bb 4429 4239 e716 a0bb
00000020: a9d0 8cbb e897 3839 86a3 af38 1a5f 3eb9
00000030: d4be 7bb7 013e 0639 6f8d b7bb 075f b4b9
-0.004698267 -0.0020776002 -0.00400774 0.00022162896 -0.0074032443 -0.005040257 0.00018516654 -0.0048855427
-0.004297335 0.00017604197 8.375109e-05 -0.0001815524 -1.50051965e-05 0.00012802334 -0.005601577 -0.00034403076

snet2.0.weight f4 [16, 32, 3, 3]
00000000: c928 0e3d 89a0 7bbb 65c2 f23c 1f9b 013d
00000010: dab9 8a3d 53a5 bd3c 5173 673b 60d5 8d3c
00000020: caf9 82bc a404 56bb 1431 523c 5e9e 83bb
00000030: c893 0c3c 08ca 593d dbd2 bf3b 9b1f 92bc
00000040: 1639 ed3c d958 003c bf6e 613c 506e cb3c
00000050: d800 d8ba a743 fd3c 4518 0d3c ed9f 083c
00000060: dcc5 aabb 6371 bd3c da84 903c 2a15 803a
00000070: cbea a53c 2e36 17bd 8576 183d 873d 4dbd
00000080: fc02 3fbc 1ac6 23bb 167a 56bb 7ec9 943c
00000090: d4d1 cf3c c1d3 c33c 8203 dd3b 656a edb6
000000a0: 3238 2fbd 880c 6e3b 22aa 91bb efac 953c
000000b0: 7c63 ef3b 7f21 c4bc d2fa 0fbd 7296 313c
000000c0: 8bc7 1fbd ae72 18bc 8fde 64bc 9a2f 343c
000000d0: 38f8 aa3c f78b e8bb e208 8739 cf62 7abc
000000e0: eeac 86bc 7f28 b53c 5677 103c 7172 8a3c
000000f0: ff00 2dbb ecf8 f1bc ccc8 dfba f11d 273c
00000100: 163b 3a3c d1c7 273c a0ec 0c3d 324a 623d
00000110: a962 de3c 51ee 99bc b091 a83b 71b7 a2bb
00000120: 6e1c 743c 0666 d03c 6144 d53c 7a5d e9ba
00000130: 2148 a43c 6a1a b7bc 88ab 83bc cedf c4bb
00000140: 4f87 783c 7816 e5ba 9ae9 ca3c 8313 bcbb
00000150: 496e c8bc b34e 2dbc 2998 c8bb 29a2 61bc
00000160: 2b41 0ebd 133f 04bc 79e7 3cbc 6131 c8bb
00000170: 84b4 62bc 531a 3b3b dd0d 403d 79cc eb3c
00000180: 522e 88bb 98bb edbc 179e 5abb 7d8b dbbb
00000190: f1fc a63d ff40 7eba cdc5 e83c 1edf 41bd
000001a0: f6fa 72bc dac6 84bb d6fc ccbb 33fa bbbb
000001b0: 988f 573c 5343 a73c 931a 03ba 108e 66b9
000001c0: e63f 55bd 74fd d5bc c700 5c3b dd72 923c
000001d0: 9e48 d3bc 2441 b3bc b7cc a5bc 932c 013c
000001e0: 407e 9bba bdc7 ba3c 08f7 053a a30a fcbb
000001f0: 95ed 98bc 8ea0 993a 5900 533c a3a3 5abc
00000200: 4db1 55bd e51b 413c 343f 8f3c 4e18 033c
00000210: 4efa 893c 60a7 7dbc e84e 9f3c dab5 75bb
00000220: 3065 cbbc aed9 b23c a051 bdbc daab 1cbd
00000230: 2d64 c7bb 51cf 30bc 1da2 3cbd 74a5 a93b
00000240: 3b3b 553c cbd0 f23c cfd4 e83c dde3 46bc
00000250: 4082 44bd 653f c0ba 954e 5dbc 1e21 ccbb
00000260: 033d 26bc f669 623c 0f81 4e3c cde7 4b3c
00000270: af67 ecbb 3cf6 22bd f059 98bc 8a7d bc3c
00000280: 9188 9839 fd67 c0bc a118 bb3b ce5a 82bc
00000290: 84e6 61bc 34d2 183d 5bf4 d2bc 6530 7b3c
000002a0: 9c8b 233c 6065 d33c 3855 23bc 2ad2 92bb
000002b0: c9c3 213b c2c6 4e3c 9ff6 0f3d 762d 2d3c
000002c0: c26d a13c 4129 b33b df3c 263d 6c4d b43b
000002d0: a854 a7bc 3f5f 143c 3a3d 0e3d cf21 c3bb
000002e0: 94ef 0f3d d55e 44bc d630 e0bb 0881 8d3c
000002f0: 14d3 04bc 5ea0 123b 21a3 d43c 51d2 8c3a
00000300: a3a5 9ebc 2e2b a23d 5cff 503c 2fbc a9ba
00000310: ebf3 c1bb f290 bebc 0f96 06bb 2c32 ca3a
00000320: 1cef fe3c ba85 a5bb b1af 293d e0db d5bc
00000330: 7d12 b73c 3c38 c83b 259b e73b d252 d9ba
00000340: 28ca 463c c8a2 873c 1fa7 aabc ca15 8ebd
00000350: 85d8 6cbb 6205 0a3d 1f94 c9bb 39d4 af3a
00000360: 5874 84bc 0dc7 163d 163e 8dba 90d0 d0bc
00000370: 0d01 0e3d 4373 a93c 784d b53c 9773 ad3c
00000380: f324 ae3c db3b 78bc c035 25bc 453e 94bc
00000390: c332 cc3c ce22 2fbd 5b75 003c d846 253b
000003a0: f0bf 273c 9b76 bc3c c691 ec3a 7424 95bc
000003b0: 15ce 95ba 31ba 963c 1404 cb3c ed55 b6bc
000003c0: ab9d 203a aa1e e1bc 045e 01bc 83e8 543b
000003d0: 9930 a1bc 3467 abbc 1a55 5a3b 966b 93bb
000003e0: b308 c63c 03de 583c f4f4 7d3c 0f45 583c
000003f0: bb84 f83b 5f73 143c a562 09bc a38d 743c
0.034706865 -0.0038395247 0.02963371 0.031642076 0.067737296 0.023150122 0.0035316537 0.01731366
-0.01598825 -0.0032656575 0.012829084 -0.0040166816 0.008580156 0.053171188 0.0058539934 -0.017837336
0.028957885 0.007833683 0.013759314 0.024832875 -0.0016479744 0.030916048 0.008611743 0.0083389105
-0.005211575 0.023125356 0.017641474 0.0009771932 0.02025356 -0.036916904 0.037222404 -0.050107505
-0.011658426 -0.0024989904 -0.0032726577 0.018162485 0.025368609 0.023904683 0.006744803 -7.0755364e-06
-0.0427782 0.0036323387 -0.0044453302 0.018270938 0.0073055606 -0.023941753 -0.03515131 0.010839092
-0.03900866 -0.0093046855 -0.013969078 0.010997677 0.020870313 -0.0070967632 0.00025755825 -0.015282347
-0.016439881 0.022114037 0.008817514 0.016900273 -0.0026398299 -0.02953764 -0.0017073392 0.01020001
0.011366626 0.010240511 0.03440535 0.05524654 0.027146654 -0.018790396 0.0051443204 -0.0049657156
0.014899356 0.025439274 0.026033582 -0.0017804347 0.020053925 -0.022351462 -0.016073003 -0.006008125
0.015168979 -0.001747801 0.024769593 -0.0057396307 -0.02446665 -0.010577845 -0.0061216545 -0.013771572
-0.034730118 -0.008071679 -0.011529797 -0.006109402 -0.013836984 0.0028549626 0.04688822 0.028784024
-0.0041559124 -0.029020116 -0.003335839 -0.006699978 0.081537135 -0.0009699016 0.028414631 -0.04733192
-0.014830342 -0.0040520253 -0.0062557263 -0.005736613 0.013156794 0.020417845 -0.0005001213 -0.00021987432
-0.05206289 -0.026121832 0.00335698 0.017877037 -0.025791463 -0.021881647 -0.020239217 0.0078841625
-0.0011863187 0.02280032 0.0005110358 -0.0076916977 -0.018667975 0.0011720823 0.012878501 -0.013344678
-0.05217104 0.011786436 0.017486192 0.0080014 0.016842987 -0.0154818 0.019446805 -0.0037492425
-0.024828523 0.021832313 -0.02311021 -0.038249828 -0.00608494 -0.010791616 -0.04605304 0.0051771943
0.01301461 0.029640576 0.028421788 -0.012139288 -0.04797578 -0.001466733 -0.013507505 -0.006229534
-0.010146382 0.013819208 0.012604012 0.012445402 -0.0072145085 -0.03978561 -0.018597573 0.02300908
0.0002909345 -0.023487085 0.005709723 -0.01591244 -0.013787869 0.03730984 -0.025751283 0.015331362
0.009982016 0.025805175 -0.009969048 -0.00448062 0.0024683347 0.01262063 0.035147306 0.010569921
0.019705657 0.0054675643 0.040585395 0.0055023935 -0.02042611 0.009055912 0.03472636 -0.005954958
0.03514059 -0.0119855 -0.006841759 0.017273441 -0.008106966 0.0022373418 0.025956692 0.0010743832
-0.019366091 0.07918392 0.012756195 -0.001294976 -0.00591897 -0.023262475 -0.002053622 0.0015426329
0.031119876 -0.005051342 0.041427318 -0.026105821 0.022347683 0.0061102193 0.007068055 -0.0016580469
0.012133159 0.016557112 -0.020831643 -0.0693775 -0.0036139798 0.03369654 -0.0061516906 0.0013414688
-0.016168758 0.036810923 -0.0010775949 -0.025490075 0.03466897 0.020684844 0.022131667 0.021173282
0.021257853 -0.015150989 -0.010083616 -0.018096099 0.024926549 -0.0427578 0.00784048 0.0025219228
0.010238633 0.023005774 0.0018048815 -0.018205859 -0.0011429215 0.01839933 0.024782218 -0.02225777
0.000612701 -0.027480442 -0.00789595 0.003248722 -0.019676493 -0.020923235 0.0033314885 -0.004498909
0.02417407 0.0132365255 0.015500296 0.013200059 0.007584182 0.00906071 -0.008385335 0.014926347

snet2.0.bias f4 [16]
00000000: b4b1 59b9 91b7 1bb9 4421 1f39 265b c1bb
00000010: 7b0c 0b39 2a30 49b8 e006 2138 6b4c 2337
00000020: bb65 8e38 89b6 e6bb 4429 d2bb db1d b0bb
00000030: 038c 9abb 9e4f d5bb 1243 12b8 efa6 dcbb
-0.00020760932 -0.00014850336 0.00015175814 -0.0059007583 0.00013260722 -4.796699e-05 3.8391794e-05 9.7333495e-06
6.7900364e-05 -0.007040803 -0.0064136107 -0.005374653 -0.0047163977 -0.0065097352 -3.4871577e-05 -0.006733767

cnet.0.weight f4 [16, 32, 3, 3]
00000000: 1f8b c8bb 8864 f33b 0973 cfbb 5911 88bc
00000010: af81 58bb 5920 1c3b 7396 1ebc 41fb 4abb
00000020: 6a60 463c 78ec 423c 9d2c d2ba aeae 843b
00000030: d5d5 ebbb 4c98 403c f425 81bc 5b46 c23b
00000040: 2b6f 0dbd 001e 1ebc d675 93bc 45d5 863a
00000050: 783d 49bc ce22 6c3b d93f eb3d de41 1d3c
00000060: 589f 88bc ca26 173c 7cff 31bb e550 96b9
00000070: 1f19 e93c 92f7 9a3b ba27 e8bb a048 f0bc
00000080: 74dc 28bc 83c3 da3b 2941 94bc 7f26 843c
00000090: bc68 993a 25ac 8ebc a38d 4e3c 714b 843c
000000a0: c39f d5bc 1c14 343c b3a7 fe3b f191 f13c
000000b0: 7939 a33c f4ea babc 78f0 62bc 402b 69bc
000000c0: edb8 4fbc 8029 463d b971 1c3b c131 afba
000000d0: b1cc c6b9 f943 d3bb 4542 113c 601c 20b8
000000e0: 5dd7 843b 1ca3 e93c 8452 99bc fe21 7b3b
000000f0: 4c1f 32bc 8846 eb3c 5fa5 383b 7d2c 873c
00000100: 781d 003c 04a6 8b3c e125 9f3b c289 4fba
00000110: b0eb c13c 773a b63c 664f b63b d11f fc3b
00000120: 191e 8bbc 66b7 1bbd 0817 3dbb 4f05 3bbb
00000130: feec 15bb 6cd4 d3bc 6674 ceba 50cb 04bd
00000140: 878f 503c cf95 a23c 2029 1139 9c19 c63c
00000150: 8760 28bc f543 503c d8b3 303b 149a c4ba
00000160: 113e 29bb a983 55bc 80b7 c5bc 5eb7 433c
00000170: 9f7d 26bc 9f32 4cbc 53fc a0bb 0d0c ad3a
00000180: 3c21 fcba d9bb 513a 274c eb3b c042 c7ba
00000190: b3f7 5c3c 3f9d 803c 14ec 2ebc d97b 3a3b
000001a0: 77b8 81bc e9ef a73c 8a1b ad3c 0c57 373c
000001b0: 0bf6 973c 920c c33c a0fd c83b 0829 15bb
000001c0: 884d 3d3c 6a39 c2bb 3b25 20bc 2872 db3c
000001d0: c244 30bb bd5a d5ba da6c 9abb 28c7 163d
000001e0: 80e2 563c 1808 43bb 0178 e0bc 680e 97bb
000001f0: 09fc c83c 5529 f33a 498e 36bc bf82 033d
00000200: e69a 883a 5cac 5b3b 47cf 8cbc eb5c 8cbb
00000210: 7c5b 1cbb d925 87bc cdd6 fdba f810 2abc
00000220: b09b 4c3c a660 2e3b 7231 223c aad0 0bbc
00000230: d25b b43c 0406 753b c230 2f3b b81a 1dbc
00000240: 7fb5 46bb a0e2 d43b a744 f1bb 131e 88bc
00000250: 2041 233e 429a 573c 99ee fabb c3a3 17bc
00000260: 40e7 023c 9b36 1fbb 4dfe 193c b923 94bb
00000270: 5d2e a3bc 71bd acbd 2bac fb3b 76cc a7bb
00000280: f79e ddbc 9507 fc3b bcbc 9dbb 483d 8d3a
00000290: 398f 963c cb71 9f3c 72f5 7abc 0e31 0e3c
000002a0: 36a5 30bc 54cb 9d3a 752a 5d3c bcfe 67bc
000002b0: 369f 90b9 bc71 09bc 68c1 73bc 5fae 4bbb
000002c0: 6b83 e6bc fcc1 08bc dcdb 1b3c ca45 51bc
000002d0: 7e64 6abc a063 beba b00c fb3b 2c80 253c
000002e0: c1e0 f7bc 56dd aebb 0f9a c1bc 6708 f83b
000002f0: 05bf a8ba 78e4 603c 7f71 95bc e0d8 0bbb
00000300: 8a6b 40bc 2a25 6dbd dc20 113c a5f8 aa3c
00000310: c097 0ebc 3934 26bc d019 48bb 6436 09bd
00000320: f698 4abb ce96 543c cc09 ba3c 16d8 d8bc
00000330: 540b 1f3b cf8d 173d 9654 31bc 24ea 843b
00000340: 1d41 aabc 3442 b9bc 3af3 9b3a 7103 63bd
00000350: ffed 1bbc 0419 8b3b 0f5d 66bc b293 95bb
00000360: 4b99 ebba 51a9 c3ba 9aea 243c 3386 da3b
00000370: 18cd 0b3d df63 bc3c 8166 3dbc 6cc6 853c
00000380: 6337 253b 4db3 213c 3d5f 633c 7b94 53bc
00000390: 4056 f33b 9252 893c 76cf 44bc 34c5 a93c
000003a0: be99 543c 18cd 11bc dfe1 8c3c e495 f6ba
000003b0: cab8 0a3c 28a2 95bb 5602 eebc 2864 233b
000003c0: 5046 983c ff2a 283d d803 c13b 613e 81bc
000003d0: 2244 313c 2d4c f8bb 6255 033c 0601 b1bb
000003e0: a4f6 81bc 90e2 36bc c229 0cbc 2dfd 973a
000003f0: 19b9 c3bc 2c8d 153c b0bf 993b fb8e 4b3b
-0.0061201 0.0074277557 -0.006330852 -0.016609835 -0.0033036282 0.0023822992 -0.009679425 -0.0030972513
0.012107948 0.011897199 -0.0016035024 0.0040491438 -0.0071971216 0.01175506 -0.015765168 0.005928797
-0.034529846 -0.009650707 -0.018000524 0.0010286948 -0.012282722 0.0036031487 0.11486787 0.0095982235
-0.016677544 0.009225557 -0.0027160337 -0.000286705 0.028454361 0.0047292197 -0.007084814 -0.029331505
-0.010306466 0.006676139 -0.018097477 0.016131638 0.0011704187 -0.01741607 0.012607011 0.016149255
-0.026077157 0.010991123 0.007771456 0.029488536 0.019924866 -0.022817113 -0.0138512775 -0.014231503
-0.012678367 0.04837942 0.0023871495 -0.0013366268 -0.0003791801 -0.006447312 0.008865898 -3.81734e-05
0.0040539936 0.02852016 -0.018716104 0.0038319821 -0.01087172 0.028720155 0.002817474 0.016500706
0.007819526 0.017046936 0.0048568104 -0.0007916951 0.023671955 0.022244675 0.0055636643 0.0076942225
-0.016982125 -0.0380167 -0.002885284 -0.00285371 -0.0022876854 -0.025858127 -0.0015751242 -0.032420456
0.012729532 0.019846825 0.00013843598 0.024182133 -0.01027692 0.012711515 0.0026962664 -0.0014999532
-0.0025824348 -0.0130318785 -0.024135351 0.011945574 -0.010161786 -0.012463241 -0.004912892 0.0013202444
-0.0019235979 0.0008000709 0.007180709 -0.0015202388 0.0134867905 0.01569998 -0.010676403 0.0028455167
-0.01583503 0.02050014 0.021131296 0.011190187 0.01854994 0.023809705 0.00613375 -0.0022760052
0.011554129 -0.0059272544 -0.009774501 0.026787832 -0.0026896452 -0.0016277652 -0.004712683 0.036811024
0.013115525 -0.0029759463 -0.027400972 -0.0046098717 0.024534242 0.0018551747 -0.011142322 0.03210711
0.001042214 0.0033519482 -0.017188681 -0.0042835376 -0.002385824 -0.01649754 -0.0019366384 -0.010380022
0.012488291 0.00266079 0.009899484 -0.008533636 0.02201644 0.0037387619 0.0026731943 -0.00958889
-0.0030320582 0.0064967424 -0.0073629203 -0.016615903 0.15942812 0.0131593365 -0.0076578376 -0.009255352
0.007989705 -0.0024294022 0.009399009 -0.00452086 -0.019919569 -0.084345706 0.007680436 -0.005120809
-0.02705334 0.0076913335 -0.0048137587 0.001077571 0.01837884 0.01946344 -0.015317308 0.008678688
-0.010781577 0.0012038746 0.013498892 -0.0141598545 -0.00027584442 -0.008388933 -0.014877655 -0.0031079275
-0.028138837 -0.008347031 0.009512868 -0.012772987 -0.014306186 -0.001452554 0.0076614246 0.010101359
-0.030258538 -0.005336444 -0.023633031 0.007569361 -0.0012874311 0.013726346 -0.018242596 -0.0021338984
-0.011744389 -0.05789677 0.008857932 0.020870516 -0.008703172 -0.010144287 -0.0030532964 -0.033499137
-0.0030913926 0.012975408 0.02270975 -0.026470225 0.0024268227 0.037000474 -0.0108233895 0.004056232
-0.020783002 -0.022614576 0.0011898049 -0.055423204 -0.009517192 0.0042449255 -0.014060273 -0.004564726
-0.0017974762 -0.001492778 0.010065699 0.00666883 0.03413114 0.022996841 -0.011560083 0.016329966
0.0025210015 0.009869409 0.013877687 -0.0129138185 0.0074260533 0.016763005 -0.012012353 0.020723917
0.012976108 -0.008898996 0.017197547 -0.0018812981 0.008466909 -0.0045664497 -0.029053848 0.0024931524
0.018588215 0.04105663 0.005890351 -0.015776815 0.010819467 -0.0075774402 0.008015962 -0.0054017333
-0.015864678 -0.011162415 -0.008554878 0.0011595838 -0.023891972 0.009127896 0.0046920404 0.0031060565

cnet.0.bias f4 [16]
00000000: 6798 2738 f5a2 47bb 14ec 52b7 1458 85b9
00000010: 315c 3f39 3e4a 8ebb 62ab 7837 ad29 cbbb
00000020: ec2e 6939 ecae ccb7 6b04 1f38 11e7 6cb8
00000030: afe6 1d39 0e02 70b9 ee1b b438 8c05 b1b9
3.995784e-05 -0.003046212 -1.2571942e-05 -0.0002543336 0.00018249523 -0.0043423465 1.4821855e-05 -0.0062000365
0.00022238091 -2.440015e-05 3.791267e-05 -5.6481982e-05 0.00015058623 -0.00022888949 8.588271e-05 -0.00033764204
